…
  (avgpool): AdaptiveAvgPool2d(output_size=(6, 6))
  (classifier): Sequential(
    (0): Dropout(p=0.5, inplace=False)
    (1): Linear(in_features=9216, out_features=1024, bias=True)
    (2): ReLU(inplace=True)
    (3): Dropout(p=0.5, inplace=False)
    (4): Linear(in_features=1024, out_features=2, bias=True)
  )
)
==========================================================================================
Layer (type:depth-idx)                   Output Shape              Param #
==========================================================================================
CatDogClassifier                         [1, 2]                    --
├─Sequential: 1-1                        [1, 256, 7, 7]            --
│    └─Conv2d: 2-1                       [1, 64, 63, 63]           23,296
│    └─ReLU: 2-2                         [1, 64, 63, 63]           --
│    └─MaxPool2d: 2-3                    [1, 64, 31, 31]           --
│    └─Conv2d: 2-4                       [1, 192, 31, 31]          307,392
│    └─ReLU: 2-5                         [1, 192, 31, 31]          --
│    └─MaxPool2d: 2-6                    [1, 192, 15, 15]          --
│    └─Conv2d: 2-7                       [1, 384, 15, 15]          663,936
│    └─ReLU: 2-8                         [1, 384, 15, 15]          --
│    └─Conv2d: 2-9                       [1, 256, 15, 15]          884,992
│    └─ReLU: 2-10                        [1, 256, 15, 15]          --
│    └─Conv2d: 2-11                      [1, 256, 15, 15]          590,080
│    └─ReLU: 2-12                        [1, 256, 15, 15]          --
│    └─MaxPool2d: 2-13                   [1, 256, 7, 7]            --
├─AdaptiveAvgPool2d: 1-2                 [1, 256, 6, 6]            --
├─Sequential: 1-3                        [1, 2]                    --
│    └─Dropout: 2-14                     [1, 9216]                 --
│    └─Linear: 2-15                      [1, 1024]                 9,438,208
│    └─ReLU: 2-16                        [1, 1024]                 --
│    └─Dropout: 2-17                     [1, 1024]                 --
│    └─Linear: 2-18                      [1, 2]                    2,050
==========================================================================================
Total params: 11,909,954
Trainable params: 11,909,954
Non-trainable params: 0
Total mult-adds (Units.MEGABYTES): 878.58
==========================================================================================
Input size (MB): 0.79
Forward/backward pass size (MB): 5.13
Params size (MB): 47.64
Estimated Total Size (MB): 53.56
…
